…
output_type":"stream"},{"name":"stdout","text":"Model: \"model_2\"\n__________________________________________________________________________________________________\nLayer (type)                    Output Shape         Param #     Connected to                     \n==================================================================================================\ninput_1 (InputLayer)            [(None, 73, 144, 1)] 0                                            \n__________________________________________________________________________________________________\nconv2d (Conv2D)                 (None, 71, 142, 64)  640         input_1[0][0]                    \n__________________________________________________________________________________________________\nconv2d_1 (Conv2D)               (None, 71, 142, 64)  36928       conv2d[0][0]                     \n__________________________________________________________________________________________________\nadd (Add)                       (None, 71, 142, 64)  0           conv2d[0][0]                     \n                                                                 conv2d_1[0][0]                   \n__________________________________________________________________________________________________\nconv2d_2 (Conv2D)               (None, 71, 142, 64)  36928       add[0][0]                        \n__________________________________________________________________________________________________\nadd_1 (Add)                     (None, 71, 142, 64)  0           add[0][0]                        \n                                                                 conv2d_2[0][0]                   \n__________________________________________________________________________________________________\nconv2d_3 (Conv2D)               (None, 71, 142, 64)  36928       add_1[0][0]                      \n__________________________________________________________________________________________________\nadd_2 (Add)                     (None, 71, 142, 64)  0           add_1[0][0]                      \n                                                                 conv2d_3[0][0]                   \n__________________________________________________________________________________________________\nconv2d_4 (Conv2D)               (None, 35, 70, 32)   18464       add_2[0][0]                      \n__________________________________________________________________________________________________\nconv2d_5 (Conv2D)               (None, 35, 70, 32)   9248        conv2d_4[0][0]                   \n__________________________________________________________________________________________________\nadd_3 (Add)                     (None, 35, 70, 32)   0           conv2d_4[0][0]                   \n                                                                 conv2d_5[0][0]                   \n__________________________________________________________________________________________________\nconv2d_6 (Conv2D)               (None, 35, 70, 32)   9248        add_3[0][0]                      \n__________________________________________________________________________________________________\nadd_4 (Add)                     (None, 35, 70, 32)   0           add_3[0][0]                      \n                                                                 conv2d_6[0][0]                   \n__________________________________________________________________________________________________\nconv2d_7 (Conv2D)               (None, 35, 70, 32)   9248        add_4[0][0]                      \n__________________________________________________________________________________________________\nadd_5 (Add)                     (None, 35, 70, 32)   0           add_4[0][0]                      \n                                                                 conv2d_7[0][0]                   \n__________________________________________________________________________________________________\nconv2d_9 (Conv2D)               (None, 73, 144, 16)  160         input_1[0][0]                    \n__________________________________________________________________________________________________\nconv2d_8 (Conv2D)               (None, 35, 70, 16)   4624        add_5[0][0]                      \n__________________________________________________________________________________________________\nresizing (Resizing)             (None, 35, 70, 16)   0           conv2d_9[0][0]                   \n__________________________________________________________________________________________________\nadd_6 (Add)                     (None, 35, 70, 16)   0           conv2d_8[0][0]                   \n                                                                 resizing[0][0]                   \n__________________________________________________________________________________________________\nresizing_1 (Resizing)           (None, 32, 32, 16)   0           add_6[0][0]                      \n__________________________________________________________________________________________________\nconv2d_10 (Conv2D)              (None, 32, 32, 16)   2320        resizing_1[0][0]                 \n__________________________________________________________________________________________________\nadd_7 (Add)                     (None, 32, 32, 16)   0           resizing_1[0][0]                 \n                                                                 conv2d_10[0][0]                  \n__________________________________________________________________________________________________\nconv2d_11 (Conv2D)              (None, 32, 32, 16)   2320        add_7[0][0]                      \n__________________________________________________________________________________________________\nadd_8 (Add)                     (None, 32, 32, 16)   0           add_7[0][0]                      \n                                                                 conv2d_11[0][0]                  \n__________________________________________________________________________________________________\nconv2d_12 (Conv2D)              (None, 32, 32, 16)   2320        add_8[0][0]                      \n__________________________________________________________________________________________________\nadd_9 (Add)                     (None, 32, 32, 16)   0           add_8[0][0]                      \n                                                                 conv2d_12[0][0]                  \n__________________________________________________________________________________________________\nconv2d_13 (Conv2D)              (None, 73, 144, 16)  160         input_1[0][0]                    \n__________________________________________________________________________________________________\nconv2d_14 (Conv2D)              (None, 32, 32, 16)   2320        add_9[0][0]                      \n__________________________________________________________________________________________________\nresizing_2 (Resizing)           (None, 32, 32, 16)   0           conv2d_13[0][0]                  \n__________________________________________________________________________________________________\nadd_10 (Add)                    (None, 32, 32, 16)   0           conv2d_14[0][0]                  \n                                                                 resizing_2[0][0]                 \n__________________________________________________________________________________________________\nconv2d_15 (Conv2D)              (None, 32, 32, 16)   2320        add_10[0][0]                     \n__________________________________________________________________________________________________\nadd_11 (Add)                    (None, 32, 32, 16)   0           add_10[0][0]                     \n                                                                 conv2d_15[0][0]                  \n__________________________________________________________________________________________________\nconv2d_16 (Conv2D)              (None, 32, 32, 16)   2320        add_11[0][0]                     \n__________________________________________________________________________________________________\nadd_12 (Add)                    (None, 32, 32, 16)   0           add_11[0][0]                     \n                                                                 conv2d_16[0][0]                  \n__________________________________________________________________________________________________\nconv2d_17 (Conv2D)              (None, 32, 32, 16)   2320        add_12[0][0]                     \n__________________________________________________________________________________________________\nadd_13 (Add)                    (None, 32, 32, 16)   0           add_12[0][0]                     \n                                                                 conv2d_17[0][0]                  \n__________________________________________________________________________________________________\nconv2d_18 (Conv2D)              (None, 32, 32, 1)    145         add_13[0][0]                     \n__________________________________________________________________________________________________\nmodel_1 (Functional)            (None, 73, 144, 1)   31620       conv2d_18[0][0]                  \n==================================================================================================\nTotal params: 210,581\nTrainable params: 210,581\nNon-trainable params: 0\n__________________________________________________________________________________________________\n","output_type":"stream"}]},{"cell_type":"code","source":"################ REANUDAR
…
